best_pose_classifier.pth (torch, 16767 bytes, 6 tensors)

net.0.weight f4 [64, 22]
-0.047051396 0.12597604 0.036729444 0.067727424 -0.17073143 -0.22870858 -0.22609387 -0.05551038
0.019290239 0.10237842 0.02132754 -0.1643048 0.0774686 0.18784699 0.11377812 0.077145346
-0.22949536 -0.16867904 -0.22448811 0.032486144 0.15342093 -0.02108211 0.08523786 0.22586514
-0.16110897 0.1273393 -0.0040726736 0.02134573 0.2582914 0.27111104 -0.16903725 0.19860174
0.02081531 0.014331132 0.007897078 0.15170671 0.24721931 -0.06404424 -0.15400963 0.08201388
0.33173373 -0.28400618 -0.3298442 -0.30566105 -0.17577413 -0.16834962 -0.102431685 -0.17657492
0.1335904 -0.1873521 -0.18638222 0.00094276667 -0.1643527 -0.20013493 0.07754958 0.18856579
0.024676323 -0.064731866 -0.17230144 -0.13256115 -0.110516 -0.14186493 -0.15462174 -0.15146458
-0.16428185 -0.1398238 -0.03280015 0.012772634 0.18385327 -0.24195275 -0.18254605 0.16330127
-0.19805183 -0.1910008 -0.024787912 0.13291493 0.0037150711 0.098252304 0.14439103 -0.21999288
-0.15605822 0.17109805 0.014524854 0.20135581 -0.015987385 0.23506878 0.033885214 0.15326256
-0.08638426 -0.17260084 -0.044702 -0.1308826 -0.038457908 0.15449718 0.024407418 -0.092428
-0.13772407 -0.20877579 -0.14860098 -0.008027233 0.18515122 0.052162148 0.15129659 -0.08186562
-0.14503707 0.0705848 -0.022225322 -0.1824216 0.10773881 0.05793519 0.07242578 -0.091804974
0.0062288046 -0.06798716 -0.07624924 -0.020411015 -0.19114149 -0.06755498 -0.040837362 0.12294385
0.044936 0.14889792 0.083055764 -0.05341287 0.0948416 -0.0401486 -0.012153164 -0.13205767
-0.19209029 -0.018085822 0.021213919 0.08936098 -0.0017295617 -0.053272273 0.12983328 -0.026817124
0.05139817 0.08959813 -0.026413275 0.17440128 0.16101004 -0.064037055 -0.033374745 0.21335874
0.038688336 -0.07259584 -0.15941244 -0.07157827 0.05063168 0.23898579 -0.06890097 0.33968356
0.09452178 0.3063343 -0.12722768 -0.14337592 -0.14163554 -0.24094892 0.042962935 0.0011080854
-0.025931539 -0.0976861 0.22269809 -0.23922606 0.14872022 0.08438919 -0.17123047 0.061259825
-0.07463679 0.08243296 -0.066747196 0.08639697 -0.32333913 0.31001025 0.16085272 0.21811706
0.043852173 -0.13454108 0.15579768 -0.16727215 -0.025555294 0.021585874 -0.1705819 0.022822082
0.15789808 -0.15295424 -0.12142118 -0.20889014 0.13364565 0.037818994 0.06653811 0.2316885
0.2099694 0.109587274 -0.30418795 0.35584822 0.071245335 0.10407619 -0.19929956 0.116016276
-0.13805048 -0.007641879 -0.08078239 0.06038041 -0.06259908 -0.18359974 -0.18548575 0.021733709
0.1440391 0.09516421 -0.18661375 -0.091037035 0.011940676 0.04333076 0.10527937 0.066681534
0.1015273 -0.05326079 -0.03220029 0.01193425 0.18614312 0.07068245 -0.024262061 0.10399158
0.07598169 0.19688758 0.14587049 -0.07269564 -0.11553069 0.27013895 0.09306642 0.011116651
-0.18728001 0.15788394 0.1769716 -0.08074167 0.06976357 0.049586985 0.22146674 -0.2908071
-0.17384861 -0.27110332 0.13275217 -0.044164605 -0.0559001 0.059808675 0.038320143 -0.09222393
-0.0512724 -0.31197315 0.10952154 -0.18509562 -0.12671097 -0.0036657362 0.16325088 -0.07828055
00000000: f7b8 40bd ddff 003e 9d71 163d adb4 8a3d
00000010: 38d4 2ebe 9532 6abe 2785 67be da5e 63bd
00000020: 9006 9e3c c7ab d13d 18b7 ae3c 843f 28be
00000030: dba7 9e3d f65a 403e 8104 e93d 61fe 9d3d
00000040: d500 6bbe 33ba 2cbe 36e0 65be 3110 053d
00000050: 601a 1d3e 64b4 acbc 3091 ae3d 3149 673e
00000060: c0f9 24be 3c65 023e 1074 85bb 3edd ae3c
00000070: c53e 843e 11cf 8a3e 1a18 2dbe 415e 4b3e
00000080: de84 aa3c 20cd 6a3c bf62 013c 0159 1b3e
00000090: 0f27 7d3e a029 83bd b3b4 1dbe e5f6 a73d
000000a0: 01d9 a93e 4269 91be 57e1 a8be 9b7f 9cbe
000000b0: 22fe 33be d863 2cbe b4c7 d1bd 0ed0 34be
000000c0: eccb 083e 3bd9 3fbe fbda 3ebe 0024 773a
000000d0: 134c 28be 2cf0 4cbe 50d2 9e3d 6417 413e
000000e0: 0026 ca3c 2492 84bd ca6f 30be 1cbe 07be
000000f0: 3656 e2bd 0a45 11be 2955 1ebe 8819 1bbe
00000100: 8039 28be f82d 0fbe 7359 06bd 4f44 513c
00000110: 0844 3c3e 76c2 77be 5aed 3abe 7338 273e
00000120: 19ce 4abe b795 43be 0510 cbbc da1a 083e
00000130: 8d78 733b 8138 c93d 3edb 133e d045 61be
00000140: bacd 1fbe 5434 2f3e a7f9 6d3c 3830 4e3e
00000150: faf7 82bc dfb5 703e 39cb 0a3d dcf0 1c3e
00000160: 3bea b0bd 46be 30be 7219 37bd 1706 06be
00000170: 0a86 1dbd 8234 1e3e 11f2 c73c e44a bdbd
00000180: 8a07 0dbe 52c9 55be db2a 18be a884 03bc
00000190: 4898 3d3e faa7 553d 7eed 1a3e 2aa9 a7bd
000001a0: 9984 14be c38e 903d e111 b6bc bacc 3abe
000001b0: 2aa6 dc3d 734d 6d3d f853 943d 3f04 bcbd
000001c0: 001b cc3b da3c 8bbd 9028 9cbd 0035 a7bc
000001d0: 98ba 43be 445a 8abd 1445 27bd fcc9 fb3d
000001e0: d00e 383d b278 183e 2419 aa3d 74c7 5abd
000001f0: 503c c23d dc72 24bd 101e 47bc 203a 07be
00000200: 51b3 44be b828 94bc d0c8 ad3c e402 b73d
00000210: 76b2 e2ba 0734 5abd 04f3 043e 96af dbbc
00000220: e386 523d 397f b73d a760 d8bc 4096 323e
00000230: d1df 243e dc25 83bd f5b3 08bd b77a 5a3e
00000240: a977 1e3d 21ad 94bd 043d 23be a197 92bd
00000250: 2a63 4f3d b1b8 743e f41b 8dbd 01eb ad3e
00000260: a394 c13d d9d7 9c3e f947 02be 23d1 12be
00000270: e808 11be 50bb 76be e7f9 2f3d 2d3d 913a
00000280: 616e d4bc a60f c8bd f80a 643e adf7 74be
00000290: 1d4a 183e 3dd4 ac3d 0a57 2fbe 95eb 7a3d
000002a0: 2cdb 98bd 9dd2 a83d c1b2 88bd e5f0 b03d
000002b0: b58c a5be aab9 9e3e 93b6 243e 145a 5f3e
000002c0: 569e 333d 23c5 09be 6d89 1f3e 6449 2bbe
000002d0: 5659 d1bc dcd4 b03c 06ad 2ebe 60f5 ba3c
000002e0: 09b0 213e 09a0 1cbe abab f8bd 4ce7 55be
000002f0: 68da 083e 17e8 1a3d 2245 883d c03f 6d3e
00000300: 3802 573e 4b6f e03d 86be 9bbe bd31 b63e
00000310: 13e9 913d e625 d53d 2f15 4cbe f199 ed3d
00000320: 1b5d 0dbe ba68 fabb 3d71 a5bd 7351 773d
00000330: f233 80bd 9201 3cbe faef 3dbe e40a b23c
00000340: fc7e 133e 74e5 c23d ad17 3fbe a071 babd
00000350: d3a2 433c 987b 313d b69c d73d 5490 883d
00000360: 8ced cf3d fc27 5abd 74e4 03bd df87 433c
00000370: 4d9c 3e3e f6c1 903d 3bc1 c6bc 8af9 d43d
00000380: 4a9c 9b3d e69c 493e 135f 153e 74e1 94bd
00000390: 5b9b ecbd a74f 8a3e 9b99 be3d 9d22 363c
000003a0: 55c6 3fbe 54ac 213e 0b38 353e e45b a5bd
000003b0: 34e0 8e3d b91b 4b3d 2dc8 623e abe4 94be
000003c0: 5f05 32be 0ece 8abe 2ff0 073e f2e5 34bd
000003d0: 81f7 64bd f1f9 743d 95f5 1c3d e6df bcbd
000003e0: 0203 52bd f2ba 9fbe d44c e03d b589 3dbe
000003f0: 85c0 01be d93c 70bb 3d2b 273e 8e51 a0bd

net.0.bias f4 [64]
-0.047188163 0.041496135 0.16790745 -0.13113964 0.105606996 -0.13436967 0.21195705 0.16236077
-0.03346094 -0.08463852 -0.030573757 0.030882575 -0.06414752 0.10323205 -0.040911704 -0.14864534
-0.14166617 -0.17527126 0.04898891 -0.039625373 0.11516264 -0.036137756 0.049186837 -0.18580341
-0.007103209 -0.18425213 -0.16937265 0.117299855 0.07544247 -0.1289803 0.08994069 0.0876151
0.17028967 0.19951797 -0.1173579 0.084976524 -0.11451368 -0.06918617 0.1681528 -0.15452051
0.101326115 -0.16770434 0.10658878 -0.14056793 0.089592084 -0.13042475 -0.014595329 0.11142022
0.08969654 0.057910707 0.056508902 -0.011081263 0.15037689 0.10984283 -0.13594265 -0.00024086237
0.15039764 -0.08296092 0.20487425 -0.041465715 -0.14752835 -0.09151351 0.16392538 -0.057850797
00000000: 6048 41bd daf7 293d eeef 2b3e 7849 06be
00000010: 7b48 d83d 3498 09be 450b 593e e741 263e
00000020: 570e 09bd f656 adbd d175 fabc 74fd fc3c
00000030: c65f 83bd 536b d33d 0893 27bd 7c36 18be
00000040: f010 11be 4f7a 33be 98a8 483d 374e 22bd
00000050: 64da eb3d 2f05 14bd 2378 493d 4043 3ebe
00000060: 09c2 e8bb 97ac 3cbe 0670 2dbe e83a f03d
00000070: 9581 9a3d 6913 04be d332 b83d 8c6f b33d
00000080: 6a60 2e3e 704e 4c3e 5759 f0bd 2c08 ae3d
00000090: 2686 eabd 7bb1 8dbd 3f30 2c3e a03a 1ebe
000000a0: 1184 cf3d b0ba 2bbe 384b da3d 0af1 0fbe
000000b0: 0e7c b73d 118e 05be 3f21 6fbc 4930 e43d
000000c0: d2b2 b73d c733 6d3d e175 673d 308e 35bc
000000d0: 66fc 193e 47f5 e03d 8d34 0bbe 0090 7cb9
000000e0: d701 1a3e 6ae7 a9bd 8eca 513e f4d7 29bd
000000f0: ac11 17be 6f6b bbbd 0edc 273e f5f4 6cbd

net.3.weight f4 [32, 64]
0.020910786 -0.17559366 0.010436714 0.094356686 0.066101655 0.11003026 0.13690081 0.18423079
0.2176238 0.10867553 -0.2554322 0.04796493 -0.105098546 -0.111811265 -0.095315605 0.044344276
0.105240226 0.041397974 0.040811867 0.0175582 -0.078398645 0.2749535 -0.068319544 0.11264481
-0.124218985 0.109830916 -0.008237258 0.05422607 0.25691667 0.023784813 -0.14556868 -0.07903754
0.14670458 -0.20111257 -0.027263865 0.041672684 -0.05285652 0.25836504 -0.016497659 -0.11642487
0.31027278 -0.1781579 -0.11705397 0.022409618 -0.029679928 0.004349321 0.08822495 0.2138756
0.2784291 0.21163999 0.15438019 0.08540852 0.13556343 0.23300536 -0.10390758 -0.07586822
-0.15515074 -0.04994552 -0.115346245 0.11023063 -0.082784966 0.23479982 0.056439143 0.014405549
0.05377982 -0.1542076 0.025749087 0.22333704 0.015998498 -0.0019538403 -0.010572024 0.09531838
0.17356615 0.020892551 -0.088711485 0.20936392 -0.102788866 -0.07403277 -0.16696957 -0.11240283
0.21432756 0.08862339 -0.11273128 -0.005012007 -0.037217498 0.048327994 -0.029588096 0.008128926
0.011663611 -0.07255216 0.08720647 0.07957782 0.17913567 0.013727364 -0.12620209 -0.17054631
0.10437154 -0.123168975 -0.10258168 -0.07438793 0.064202115 0.037493747 0.06533306 0.017250434
0.20574068 -0.17954369 0.004386395 0.026612341 -0.07242112 -0.018725544 0.127638 0.040815104
0.26428276 0.18026611 0.12465342 0.025530875 0.19048187 0.08057849 -0.013315722 -0.121035635
-0.052858748 -0.119625196 0.030427659 0.20674653 0.082228735 0.01848007 0.15074521 0.1385158
-0.06775558 -0.25325036 0.09094854 0.26251662 -0.007097167 -0.09586817 0.058942072 0.22674355
0.052221537 0.09009822 -0.23911323 0.20788418 0.0006751269 -0.07701044 -0.09925468 -0.0272917
0.30352086 0.044348404 -0.101307034 0.017853504 0.051891327 0.18787262 0.0764941 -0.12275565
0.11177847 0.06059076 0.087348394 -0.041646853 0.16875868 0.005667033 -0.051146753 -0.05305437
0.11002168 -0.117867246 -0.12600277 -0.079808496 -0.11479531 0.16076595 0.17120163 0.01032117
0.24341652 -0.040591247 0.10181001 -0.04316169 -0.027169073 0.056700364 0.13132556 0.29457468
0.28511232 0.021892363 0.019711308 0.03341244 0.117284626 0.21652873 -0.105012015 0.024219245
-0.117164336 0.060799375 0.035517577 0.16307743 0.11472945 0.16039588 0.10268793 0.0518097
0.09235523 0.08476528 0.012929514 0.03127848 0.010757104 -0.05139956 -0.037704602 -0.036551233
-0.14052396 0.023028808 0.07184409 0.004906373 0.05642891 0.111213386 0.069903 0.12323098
-0.17122203 -0.04316023 0.06615554 0.16299504 -0.08183144 0.004282998 0.051451292 0.08663404
-0.0033371495 -0.04200925 -0.052035213 -0.08279021 -0.05398061 0.096522614 0.10863698 0.22017477
-0.022552272 0.101624295 0.18227045 0.23773603 0.11364168 0.03188527 -0.04887308 -0.11356515
-0.07377702 0.17316735 0.087363005 -0.02432914 0.124462426 0.012222737 -0.16503671 -0.22256528
-0.25072396 0.021425279 0.013854186 -0.09225896 -0.22017682 -0.040116396 -0.054292023 -0.013524666
0.1808911 0.080951214 0.0996448 -0.05295655 -0.09771274 -0.05922931 -0.049845945 0.024560208
00000000: 194d ab3c d3ce 33be c0fe 2a3c 143e c13d
00000010: 4e60 873d 8c57 e13d ba2f 0c3e ffa6 3c3e
00000020: c6d8 5e3e 4791 de3d 02c8 82be e076 443d
00000030: e83d d7bd 4efd e4bd d434 c3bd 58a2 353d
00000040: 3088 d73d ec90 293d 582a 273d 37d6 8f3c
00000050: 788f a0bd b5c6 8c3e 1eeb 8bbd 52b2 e63d
00000060: 8666 febd 08ef e03d 90f5 06bc 281c 5e3d
00000070: 958a 833e 5ed8 c23c f50f 15be 6fde a1bd
00000080: ba39 163e 74f0 4dbe 7858 dfbc fab0 2a3d
00000090: 1480 58bd 6c48 843e 1926 87bc 2a70 eebd
000000a0: 13dc 9e3e 066f 36be feb9 efbd 6094 b73c
000000b0: 5223 f3bc c084 8e3b 48af b43d 3502 5b3e
000000c0: 428e 8e3e 27b8 583e d715 1e3e aaea ae3d
000000d0: 24d1 0a3e f598 6e3e 7fcd d4bd cc60 9bbd
000000e0: d6df 1ebe ac93 4cbd a73a ecbd 99c0 e13d
000000f0: 2a8b a9bd 5d6f 703e bb2c 673d 4005 6c3c
00000100: 3b48 5c3d 99e8 1dbe c0ef d23c 77b2 643e
00000110: 480f 833c 000c 00bb 4836 2dbc 4836 c33d
00000120: 53bb 313e db26 ab3c 5eae b5bd 7f63 563e
00000130: f882 d2bd 7e9e 97bd 12fa 2abe 7433 e6bd
00000140: af78 5b3e 2e80 b53d a8df e6bd c33b a4bb
00000150: 6071 18bd 93f3 453d bc62 f2bc 302f 053c
00000160: bb18 3f3c 3a96 94bd 4e99 b23d b2f9 a23d
00000170: 576f 373e bde8 603c 1f3b 01be b1a3 2ebe
00000180: bfc0 d53d 0440 fcbd 5816 d2bd b358 98bd
00000190: 667c 833d 0b93 193d 57cd 853d c850 8d3c
000001a0: afad 523e 4dda 37be c0bb 8f3b 2002 da3c
000001b0: 8651 94bd 5066 99bc 89b3 023e bd2d 273d
000001c0: 1250 873e ae97 383e 4b4a ff3d 2026 d13c
000001d0: ae0d 433e 5606 a53d 302a 5abc 88e1 f7bd
000001e0: 6a82 58bd 0efe f4bd 6d43 f93c 5db5 533e
000001f0: 8a67 a83d 8463 973c f45c 1a3e 16d7 0d3e
00000200: 70c3 8abd 08aa 81be 3a43 ba3d 9468 863e
00000210: 5a8f e8bb 8856 c4bd 3e6d 713d 762f 683e
00000220: 40e6 553d 6a85 b83d 19da 74be 97df 543e
00000230: 00fb 303a a6b7 9dbd 0a46 cbbd d892 dfbc
00000240: 1667 9b3e aca6 353d 107a cfbd 8341 923c
00000250: 008c 543d ae61 403e f0a8 9c3d 5067 fbbd
00000260: 1cec e43d 042e 783d b7e3 b23d e495 2abd
00000270: 13cf 2c3e 85b2 b93b 427f 51bd 8a4f 59bd
00000280: 0c53 e13d 6264 f1bd df06 01be a372 a3bd
00000290: ce19 ebbd d49f 243e 7b4f 2f3e 201a 293c
000002a0: 2e42 793e 0243 26bd c481 d03d 50ca 30bd
000002b0: ad91 debc a43e 683d 357a 063e 7ed2 963e
000002c0: 3efa 913e 9d57 b33c 9c79 a13c 7cdb 083d
000002d0: ec32 f03d b5b9 5d3e 8a10 d7bd 7067 c63c
000002e0: dbf3 efbd c408 793d e17a 113d c5fd 263e
000002f0: 46f7 ea3d d13e 243e 0d4e d23d 6836 543d
00000300: bd24 bd3d 6b99 ad3d 50d6 533c dd1d 003d
00000310: 903e 303c 5888 52bd 2470 1abd bfb6 15bd
00000320: 83e5 0fbe e9a6 bc3c ff22 933d a4c5 a03b
00000330: 0022 673d d8c3 e33d 4e29 8f3d 8660 fc3d
00000340: d454 2fbe c8c8 30bd 8e7c 873d 2ce8 263e
00000350: 3e97 a7bd 6458 8c3b 97be 523d 306d b13d
00000360: 14b4 5abb e411 2cbd e022 55bd ea8d a9bd
00000370: c61a 5dbd a6ad c53d 117d de3d 7f75 613e
00000380: 8bbf b8bc 6620 d03d 1ba5 3a3e 1371 733e
00000390: f8bc e83d 219a 023d 242f 48bd d894 e8bd
000003a0: 6818 97bd c852 313e 60eb b23d e84d c7bc
000003b0: 28e6 fe3d e041 483c 62ff 28be 27e8 63be
000003c0: e45e 80be 1184 af3c abfc 623c 44f2 bcbd
000003d0: 0876 61be 1751 24bd 5061 5ebd 9096 5dbc
000003e0: 843b 393e c0c9 a53d 9312 cc3d f8e8 58bd
000003f0: 9e1d c8bd 6f9a 72bd 432b 4cbd 7d32 c93c

net.3.bias f4 [32]
0.07730874 0.1653432 0.089628145 0.15598181 0.022733582 -0.11447461 0.097750634 0.06734569
-0.028425092 0.15651494 -0.067541935 -0.018870642 0.11427887 0.012203348 0.069993444 0.14213355
0.043783676 0.0733026 0.069490075 0.08015723 0.04640514 -0.01378127 0.099365845 0.15850268
0.004770036 0.05067605 -0.050237115 0.052654155 0.1240814 0.15146264 -0.098594986 0.20257221
00000000: 0b54 9e3d ba4f 293e f68e b73d b2b9 1f3e
00000010: c73b ba3c aa71 eabd 7c31 c83d 8aec 893d
00000020: bddb e8bc 7445 203e 6d53 8abd 9b96 9abc
00000030: 0a0b ea3d 8df0 473c b958 8f3d 758b 113e
00000040: 8356 333d ac1f 963d d050 8e3d 7929 a43d
00000050: 5113 3e3d d6ca 61bc 5280 cb3d 874e 223e
00000060: f64d 9c3b b191 4f3d 6fc5 4dbd e2ab 573d
00000070: 641e fe3d 0619 1b3e 2bec c9bd 176f 4f3e

net.6.weight f4 [2, 32]
-0.23268664 -0.18610582 -0.15477227 0.24339041 -0.1354636 0.15184191 -0.2748003 -0.3140202
-0.123594 0.34294647 -0.15231958 -0.10602673 -0.17760481 -0.29823372 -0.25502107 0.11167479
0.33945194 -0.17035471 -0.20894074 0.38691935 -0.19270387 -0.20342982 0.33483276 0.09509122
-0.25303534 0.2990456 0.25608343 -0.18489222 -0.33221427 0.26797926 -0.03848437 0.25301033
0.21618201 0.28249606 0.25274384 -0.28854313 0.32410172 -0.061502382 0.21984743 0.30993006
0.23334502 -0.07642343 -0.00092967076 0.038269844 0.31234148 0.07209735 0.06684523 -0.34283337
-0.1115577 0.28359932 0.08350288 -0.44875887 0.01834552 0.1518977 -0.20883127 -0.33394018
0.17309918 -0.17805417 -0.042601172 0.30788454 0.1522479 -0.32554418 -0.13180293 -0.2430623
00000000: 6845 6ebe 8692 3ebe 9f7c 1ebe 563b 793e
00000010: f8b6 0abe 727c 1b3e a0b2 8cbe 41c7 a0be
00000020: da1e fdbd ae96 af3e aaf9 1bbe 8b24 d9bd
00000030: 09de 35be 17b2 98be 1f92 82be c1b5 e43d
00000040: a5cc ad3e 7771 2ebe 90f4 55be 4b1a c63e
00000050: 2a54 45be e84f 50be 336f ab3e 30bf c23d
00000060: d98d 81be 811c 993e 5e1d 833e 6354 3dbe
00000070: fd17 aabe 9434 893e c9a1 1dbd 928a 813e
00000080: d15e 5d3e 53a3 903e a467 813e edbb 93be
00000090: a9f0 a53e ece9 7bbd af1f 613e 27af 9e3e
000000a0: fff1 6e3e e383 9cbd 26b5 73ba d7c0 1c3d
000000b0: 39eb 9f3e c7a7 933d 27e6 883d db87 afbe
000000c0: 5d78 e4bd ee33 913e 8f03 ab3d b9c3 e5be
000000d0: 5849 963c 128b 1b3e ddd7 55be 35fa aabe
000000e0: e940 313e d553 36be 917e 2ebd 0ba3 9d3e
000000f0: e0e6 1b3e baad a6be 59f7 06be 53e5 78be

net.6.bias f4 [2]
0.20371889 -0.0021442093
00000000: af9b 503e dd85 0cbb
