pose_classifier.pth (torch, 18775 bytes, 6 tensors)

net.0.weight f4 [64, 26]
0.09938965 0.70294833 -0.018653924 0.74614733 -0.25824142 0.5869381 -0.2686642 -0.32523242
0.35998216 -0.90473217 0.06578726 -0.4256287 0.16695014 -0.32607418 -0.36423916 0.33625087
-0.69358075 0.080399 -0.18618715 0.24054001 0.32462877 0.32487562 0.22299786 0.11424949
0.08382633 -0.12958738 0.45017058 0.1307237 0.10504712 0.06535642 0.036277037 0.35152078
-0.37086156 -0.38784724 -0.05743387 0.12749615 -0.072988704 0.2607304 0.76947016 0.3145147
-0.7668255 -0.11354919 0.84152275 0.1933731 -0.5144874 -0.46909568 -0.76179945 -0.5725573
0.0863364 0.17127863 0.037489414 -0.25579292 0.09547589 0.4084733 -0.020127831 0.532732
-0.09901057 0.37589887 0.4641957 0.26261845 0.38273922 0.05328369 0.040432915 0.012317123
-0.023288043 -0.0014788653 0.018402562 -0.5531112 1.3693947 0.028780226 -0.99807787 -0.7367467
-0.34283373 -0.45097527 -0.32966235 -0.021129383 -0.14956295 0.13143826 -0.00784445 -0.63241076
-0.13940716 -0.26029378 0.099501185 -0.24693698 -0.43340197 0.2003007 0.52573794 0.32763875
-0.052685402 -0.042830735 0.1051215 -0.2931896 -0.071085006 -0.51691616 0.08325179 -0.47820893
0.33562064 1.0327555 -0.4084835 0.93998283 0.020702312 -0.07181918 0.013513894 0.026987879
0.06279099 0.25889954 -0.14463317 0.22169705 -0.28243062 0.47144076 -0.24453913 -0.4650697
0.25910363 -0.40513304 -0.35104936 0.23566602 0.23278832 -0.03161833 -0.7009355 -0.39314935
0.6993085 -0.62616783 0.7348981 0.44024763 0.104619615 0.38846552 -0.13732336 -0.20492697
0.08494919 0.20457865 0.24422677 -0.2606757 0.09369622 -0.4085751 -0.028127821 -0.29669103
-0.11818869 0.3164438 -0.37209013 0.3130601 0.09995577 0.08170797 0.36235452 0.31694713
-0.16046879 -0.002862585 0.22709647 -0.69631374 0.14664666 1.2278384 -0.57098913 -0.7047019
-0.16122617 0.01663454 0.14447024 0.16336238 -0.11648892 -0.38348418 -0.15161586 -0.1291204
-0.108695954 -0.2431419 0.22790527 0.35950676 -0.3400969 0.31222808 0.041987974 0.004896686
0.63279665 0.059535284 -0.44774777 0.24612443 0.07400022 -0.35913184 0.00921092 1.2838237
-0.06538523 -1.3181725 -0.15612625 0.024083303 0.1818977 0.061320156 0.02443022 -0.18841147
-0.0028652214 -0.14619096 0.037339065 -0.2037275 -0.6527555 0.47197425 0.79150546 0.57345444
-0.22249457 -0.7474942 0.2541706 -0.8033139 -0.55729866 -0.078525215 0.28450164 0.09963962
0.16634282 0.29854736 -0.2624111 0.28449038 -0.0025992077 0.27623793 0.0012602868 0.24401893
0.027785731 0.8320703 -0.12238294 0.4629154 -0.055549882 0.70769763 -0.090409264 -0.6327392
0.028267818 -0.4466604 0.3234676 -0.44705975 -0.026771594 -0.12959406 0.34696856 -0.50694776
-0.21198758 -0.4261668 -0.17778361 0.7523559 -0.11139431 0.64961904 0.08159944 -0.16893974
-0.2266182 0.0004820139 0.017571706 -1.3238659 -0.29643813 -0.45728502 0.29508308 -0.4340563
0.10944091 0.38941157 -0.17662518 0.5204175 0.25457877 -0.20621526 0.028401395 -0.39397255
-0.072073564 0.37587184 -0.12093526 0.48498625 0.17808792 0.5675154 -0.24113123 0.56853443
00000000: cd8c cb3d 6cf4 333f 1dd0 98bc 8303 3f3f
00000010: 3838 84be 9341 163f 5b8e 89be dd84 a6be
00000020: 954f b83e 879c 67bf 79bb 863d 01ec d9be
00000030: faf4 2a3e 32f3 a6be 8e7d babe 1329 ac3e
00000040: 828e 31bf 3ba8 a43d d8a7 3ebe 1f50 763e
00000050: be35 a63e 1956 a63e 8d59 643e a3fb e93d
00000060: 24ad ab3d 8eb2 04be c27c e63e 6fdc 053e
00000070: f222 d73d 96d9 853d 3b97 143d 88fa b33e
00000080: 91e1 bdbe ea93 c6be c73f 6bbd 5a8e 023e
00000090: 1a7b 95bd 747e 853e fffb 443f 1208 a13e
000000a0: ad4e 44bf 7a8c e8bd 096e 573f 9903 463e
000000b0: 72b5 03bf 4f2d f0be 4a05 43bf 1d93 12bf
000000c0: 23d1 b03d aa63 2f3e 808e 193d 4af7 82be
000000d0: dd88 c33d 6a23 d13e 1fe3 a4bc 2061 083f
000000e0: 0ec6 cabd d175 c03e 0fab ed3e ed75 863e
000000f0: 65f6 c33e 0040 5a3d fc9c 253d c2cd 493c
00000100: 91c6 bebc 7cd6 c1ba f8c0 963c b298 0dbf
00000110: 5348 af3f 82c4 eb3c 0882 7fbf 6f9b 3cbf
00000120: e787 afbe 3be6 e6be 81c9 a8be 8717 adbc
00000130: 0827 19be c097 063e 0286 00bc ace5 21bf
00000140: c0c0 0ebe 3a45 85be 47c7 cb3d 0cdd 7cbe
00000150: dde6 ddbe a01b 4d3e c396 063f 44c0 a73e
00000160: a6cc 57bd 486f 2fbd f149 d73d f21c 96be
00000170: 0495 91bd 9e54 04bf ea7f aa3d cdd7 f4be
00000180: 78d6 ab3e 5531 843f c024 d1be b7a2 703f
00000190: e597 a93c ef15 93bd 6169 5d3c af15 dd3c
000001a0: 9098 803d 7b8e 843e b81a 14be 8d04 633e
000001b0: bf9a 90be af60 f13e 7768 7abe 9e1d eebe
000001c0: 3ba9 843e 996d cfbe bebc b3be 6f52 713e
000001d0: 1060 6e3e 3982 01bd 8270 33bf df4a c9be
000001e0: e205 333f 894c 20bf 4822 3c3f 2368 e13e
000001f0: cf42 d63d f4e4 c63e 7f9e 0cbe 60d8 51be
00000200: d7f9 ad3d 117d 513e 9516 7a3e 4977 85be
00000210: cee3 bf3d c130 d1be 516c e6bc e3e7 97be
00000220: e90c f2bd ec04 a23e 9982 bebe 6a49 a03e
00000230: 9cb5 cc3d 8256 a73d 8886 b93e e546 a23e
00000240: ee51 24be 359a 3bbb fa8b 683e 9e41 32bf
00000250: 8b2a 163e cf29 9d3f 582c 12bf 5867 34bf
00000260: 7918 25be 2945 883c 02f0 133e 7848 273e
00000270: be91 eebd 0a58 c4be 3041 1bbe 2338 04be
00000280: fc9b debd 31fa 78be 0060 693e 4511 b83e
00000290: 2e21 aebe 5cdc 9f3e 95fb 2b3d 6174 a03b
000002a0: f6fe 213f 45db 733d 323f e5be 0b08 7c3e
000002b0: 6d8d 973d 21e0 b7be 66e9 163c 5654 a43f
000002c0: b1e8 85bd e0b9 a8bf 8fdf 1fbe 594a c53c
000002d0: 6443 3a3e d82a 7b3d e221 c83c f0ee 40be
000002e0: 70c6 3bbb 15b3 15be d9f0 183d f19d 50be
000002f0: fc1a 27bf 9ca6 f13e 1aa0 4a3f e9cd 123f
00000300: 9ed5 63be c85b 3fbf a622 823e fba5 4dbf
00000310: 20ab 0ebf d4d1 a0bd 33aa 913e db0f cc3d
00000320: c655 2a3e 33db 983e bf5a 86be b9a8 913e
00000330: 7857 2abb 0f6f 8d3e 3530 a53a 19e0 793e
00000340: e79e e33c 8f02 553f e8a3 fabd 3f03 ed3e
00000350: 4688 63bd ac2b 353f 7e28 b9bd 32fb 21bf
00000360: e991 e73c acb0 e4be 8c9d a53e 04e5 e4be
00000370: 1a50 dbbc 4eb4 04be dda5 b13e 54c7 01bf
00000380: 4613 59be 8932 dabe e80c 36be 659a 403f
00000390: b322 e4bd 6f4d 263f 9b1d a73d 8afe 2cbe
000003a0: 9a0e 68be cfb6 fc39 8af2 8f3c 7074 a9bf
000003b0: bdc6 97be 4321 eabe 2115 973e a13c debe
000003c0: 8e22 e03d f460 c73e 3bdd 34be 153a 053f
000003d0: 2658 823e 182a 53be 0baa e83c c5b6 c9be
000003e0: 4e9b 93bd 4672 c03e e8ac f7bd 1e50 f83e
000003f0: ae5c 363e b048 113f 1beb 76be 798b 113f

net.0.bias f4 [64]
-0.47034618 0.3008639 -0.12765168 -0.09564725 -0.0021732913 -0.12729026 -0.11693945 0.06976077
-0.29912686 -0.29617867 0.030743686 0.30242655 0.0063332524 -0.03870953 0.045519583 -0.06942694
-0.050047208 -0.106380306 -0.36667475 -0.35134315 0.0065536867 -0.047936182 -0.055354513 -0.08843347
-0.31866387 -0.10675381 0.005323054 -0.2579778 -0.22049683 -0.005038783 -0.12072853 0.009108884
-0.16569485 -0.21663588 -0.10668833 -0.25468534 -0.25237238 -0.38743916 -0.0077178003 -0.17533305
0.08317645 -0.27310598 -0.17933407 -0.08200029 -0.04017994 0.18912001 -0.096778154 -0.041008845
-0.39209253 -0.05725206 -0.015963884 -0.16535498 -0.05860977 0.017819721 -0.01219232 -0.517986
-0.025697045 -0.21144652 -0.18676257 0.049845956 -0.23181699 0.039299913 -0.007705284 0.20279229
00000000: 37d1 f0be d50a 9a3e 1fb7 02be b5e2 c3bd
00000010: c76d 0ebb 6158 02be f37d efbd bcde 8e3d
00000020: 2827 99be bba4 97be 2fda fb3c a7d7 9a3e
00000030: 2c87 cf3b e28d 1ebd be72 3a3d b62f 8ebd
00000040: 4dfe 4cbd ebdd d9bd cbbc bbbe 40e3 b3be
00000050: 4fc0 d63b bb58 44bd 6abb 62bd 9b1c b5bd
00000060: e927 a3be bea1 dabd 036d ae3b ab15 84be
00000070: ecc9 61be 601c a5bb 8540 f7bd 6e3d 153c
00000080: e9ab 29be ccd5 5dbe 697f dabd 1e66 82be
00000090: f436 81be 6d5e c6be 9ae5 fcbb 828a 33be
000000a0: 6a58 aa3d 8cd4 8bbe 5aa3 37be c5ef a7bd
000000b0: b993 24bd ada8 413e a033 c6bd e4f8 27bd
000000c0: 5ac0 c8be 2381 6abd b1c6 82bc d152 29be
000000d0: cc10 70bd aafa 913c 4cc2 47bc bb9a 04bf
000000e0: 9c82 d2bc 7085 58be b03e 3fbe 462b 4c3d
000000f0: 6f61 6dbe f2f8 203d 9b7c fcbb c8a8 4f3e

net.3.weight f4 [32, 64]
-0.3915536 0.05036037 -0.4189274 -0.070479214 -0.14564775 0.657873 2.0770261 -0.7898318
-0.9663214 -0.024839912 -0.09702937 -0.10035628 1.9610311 0.21781483 0.3512285 0.10547528
-1.0667902 3.1720703 2.6898012 -0.020145534 -0.24392591 0.05556224 -0.260063 0.06361449
-0.023889177 0.26450622 -0.10643159 2.3578057 -0.4494081 -0.29682893 0.055003718 0.5794202
-0.3092563 1.6429617 -0.29122466 -0.32262832 -0.35813835 -1.5490876 -0.44009745 -0.0472337
-0.4831432 1.7565602 0.07439125 0.09361409 1.7092735 -0.62007856 -0.52003807 -0.13816582
-0.003972966 -0.27126598 0.12047768 -0.1333713 -1.392933 0.20373084 -0.80314034 -0.15421939
-0.026346901 0.33526433 -0.16113575 0.0013466908 0.1332265 0.041819207 -0.2827334 0.39766106
-0.010321547 4.2164545 2.124725 -0.25496635 0.44247803 -0.005142813 -0.014080781 -0.19586271
-0.4859631 -0.25871927 2.3844547 2.3741217 0.02078294 0.14309464 0.2906291 3.0289943
1.7866019 2.0135036 -0.16756141 -0.86850476 2.705371 0.045293823 -0.068704486 4.085126
-0.6857183 -0.4603258 0.008336947 2.182529 -0.095363885 0.06930568 -0.09720434 -0.1731691
-0.105780914 0.010856706 0.014704133 -0.6774199 -1.0692993 -0.70538634 -0.119329736 0.08715893
0.57641816 0.0448203 0.016101034 0.08833527 0.1008607 -0.113812014 0.6671718 4.4653745
-0.21728036 0.037002444 -0.16436607 -0.48248586 0.066729635 0.36900046 -0.3727524 -0.44428882
0.016948508 0.01703298 -0.030700404 -0.021234663 -0.0040639304 3.2825897 -0.021966657 1.5016485
0.54062575 1.2126532 -0.6100207 0.71501726 0.9549932 -0.01327267 -0.048628997 0.26220146
0.3766757 -0.23247369 0.4336 -0.10863681 0.122284524 -1.5448745 0.13494736 0.8574277
1.4133252 0.14804748 0.52337384 0.092991754 -1.6712229 0.10156116 -1.5673367 0.22062749
0.19236568 -0.9160457 0.018501554 0.09763633 -0.2308335 0.72687167 0.10471034 0.4813398
-0.14348678 -0.0066795903 -1.9722735 -0.29170892 -0.33540997 0.07830839 0.043844573 -0.06804979
-1.8226641 0.03003671 0.02837211 -0.059825573 -0.37484023 0.03425718 1.064932 -0.08209178
0.4730344 -0.02277602 -0.101889424 0.17918004 -0.9541316 1.3718287 -0.06484976 0.5063966
-2.0334575 -0.19931217 -0.12721623 -0.080375776 0.5811524 -0.066964634 -0.21316214 1.8352093
-1.4792899 -0.51130736 -0.9844872 0.29196316 -0.78318655 2.1863856 2.852242 -0.4083438
-0.639878 -0.18531178 -0.13699116 -0.000462037 1.3726898 0.95752555 -0.21901502 0.032305952
-0.38308564 -0.044919185 -0.025918258 -0.120200574 -0.028360358 -0.094787315 0.051583514 0.039553627
-0.032092042 0.30928683 -0.15432006 0.014940891 0.17063417 -0.033173013 -0.023799032 -1.3908691
-0.2188484 2.7990897 -0.10716057 -0.71143997 -0.6642206 -1.3269949 -0.5546964 -0.11346254
-0.5191021 2.7911808 -0.049599834 -0.10738585 0.9558883 -0.42946753 0.38536996 0.054634046
-0.39876726 0.06522622 0.929299 -0.061194018 0.06786227 -1.1383522 -2.2696488 -0.51812553
0.5300599 -0.27258125 -0.15973759 -0.04842686 -0.7695955 0.049595013 -0.09096554 -0.4245996
00000000: b779 c8be ad46 4e3d a77d d6be 6857 90bd
00000010: af24 15be 5d6a 283f ffed 0440 6b32 4abf
00000020: d760 77bf 127d cbbc 56b7 c6bd 9887 cdbd
00000030: 1103 fb3f da0a 5f3e 39d4 b33e 6c03 d83d
00000040: 958c 88bf 3303 4b40 b425 2c40 3f08 a5bc
00000050: b7c7 79be 3b95 633d fa26 85be 5048 823d
00000060: 3cb3 c3bc 5c6d 873e cef8 d9bd 4ae6 1640
00000070: d218 e6be f6f9 97be 944b 613d e254 143f
00000080: d756 9ebe 924c d23f 661b 95be 8a2f a5be
00000090: e95d b7be 8148 c6bf 7454 e1be 2078 41bd
000000a0: 8c5e f7be f7d6 e03f 715a 983d beb8 bf3d
000000b0: 79c9 da3f 78bd 1ebf 3721 05bf 577b 0dbe
000000c0: a82f 82bb 60e3 8abe 00bd f63d 7c92 08be
000000d0: a14b b2bf d19e 503e 9b9a 4dbf b0eb 1dbe
000000e0: 75d5 d7bc c4a7 ab3e c500 25be 7283 b03a
000000f0: 876c 083e 9e4a 2b3d 6fc2 90be 3b9a cb3e
00000100: b51b 29bc 32ed 8640 7ffb 0740 f38a 82be
00000110: 7b8c e23e 0b85 a8bb 13b3 66bc 3c90 48be
00000120: 28d0 f8be da76 84be e89a 1840 9cf1 1740
00000130: fc40 aa3c 6787 123e 56cd 943e 0bdb 4140
00000140: 5faf e43f 3edd 0040 3895 2bbe 5456 5ebf
00000150: cc24 2d40 0486 393d f0b4 8cbd 5ab9 8240
00000160: 3c8b 2fbf d3af ebbe b197 083c 8eae 0b40
00000170: 244e c3bd 23f0 8d3d 1213 c7bd 3e53 31be
00000180: aaa3 d8bd 53e0 313c 9be9 703c 646b 2dbf
00000190: cdde 88bf 3394 34bf 2663 f4bd 6280 b23d
000001a0: 2490 133f 7e95 373d 51e6 833c 1fe9 b43d
000001b0: 0e90 ce3d 4616 e9bd c5cb 2a3f 59e4 8e40
000001c0: be7e 5ebe e08f 173d 944f 28be 6308 f7be
000001d0: 8ca9 883d a1ed bc3e 67d9 bebe d379 e3be
000001e0: 99d7 8a3c c088 8b3c 6a7f fbbc 51f4 adbc
000001f0: b82a 85bb f315 5240 6bf3 b3bc 0536 c03f
00000200: 7366 0a3f 3838 9b3f 512a 1cbf 5f0b 373f
00000210: 6f7a 743f 9d75 59bc 332f 47bd 453f 863e
00000220: a3db c03e 950d 6ebe d200 de3e fa7c debd
00000230: 4f70 fa3d 73be c5bf a42f 0a3e 6280 5b3f
00000240: d7e7 b43f c299 173e d4fb 053f 7672 be3d
00000250: a2ea d5bf 4cff cf3d 7d9e c8bf 2cec 613e
00000260: 82fb 443e f981 6abf 9290 973c 8ef5 c73d
00000270: 9e5f 6cbe 4314 3a3f 6072 d63d 2c72 f63e
00000280: 33ee 12be 77e0 dabb 7573 fcbf df5a 95be
00000290: dbba abbe 2660 a03d 5e96 333d b05d 8bbd
000002a0: 0f4d e9bf 8c0f f63c a16c e83c a90b 75bd
000002b0: 0feb bfbe 4251 0c3d b14f 883f bc1f a8bd
000002c0: 9131 f23e c794 babc 67ab d0bd f97a 373e
000002d0: f841 74bf 1598 af3f f3cf 84bd 35a3 013f
000002e0: 2b24 02c0 7d18 4cbe f944 02be 0e9c a4bd
000002f0: 67c6 143f c124 89bd 2d47 5abe 23e8 ea3f
00000300: 5f59 bdbf 0ae5 02bf 5a07 7cbf 327c 953e
00000310: ea7e 48bf beed 0b40 228b 3640 7012 d1be
00000320: 0bcf 23bf 5fc2 3dbe 6947 0cbe 8e3d f2b9
00000330: 4db4 af3f 6520 753f 7945 60be 3f53 043d
00000340: cd23 c4be 2efd 37bd 8752 d4bc b82b f6bd
00000350: fb53 e8bc da1f c2bd 3c49 533d fc02 223d
00000360: f272 03bd d85a 9e3e 1406 1ebe a4ca 743c
00000370: b9ba 2e3e 6de0 07bd 30f6 c2bc 0008 b2bf
00000380: cc19 60be 4924 3340 0077 dbbd ee20 36bf
00000390: 5c0a 2abf f8da a9bf 9500 0ebf 0c5f e8bd
000003a0: e0e3 04bf b5a2 3240 3229 4bbd 1ded dbbd
000003b0: 18b5 743f 2be3 dbbe 364f c53e f3c7 5f3d
000003c0: 392b ccbe 5395 853d 8ae6 6d3f 94a6 7abd
000003d0: 60fb 8a3d 86b5 91bf ed41 11c0 e0a3 04bf
000003e0: 01b2 073f c58f 8bbe 4092 23be 3e5b 46bd
000003f0: 3604 45bf 2424 4b3d 244c babd 1e65 d9be

net.3.bias f4 [32]
0.4040116 0.01825732 -0.014900356 0.32924783 0.12967832 0.61027926 0.39591673 0.011355581
0.21242383 0.03286647 -0.006104204 0.4997047 0.21489456 0.62670887 -0.60428524 -0.15662993
0.2513787 -0.49363875 0.06731265 -0.13042898 0.037708275 -0.0026480244 0.18181446 -0.024474703
0.22530085 0.23859133 0.3985055 0.3535306 0.012297289 0.19894831 0.022987252 0.07611557
00000000: 9cda ce3e 6090 953c 9f20 74bc 2c93 a83e
00000010: 65ca 043e 433b 1c3f 99b5 ca3e c20c 3a3c
00000020: a285 593e fe9e 063d c605 c8bb 4bd9 ff3e
00000030: 520d 5c3e fe6f 203f 70b2 1abf 9963 20be
00000040: b5b4 803e 38be fcbe 37db 893d 2d8f 05be
00000050: fe73 1a3d 7a8a 2dbb 922d 3a3e 2c7f c8bc
00000060: 44b5 663e 4951 743e ea08 cc3e f601 b53e
00000070: 927a 493c 1bb9 4b3e c34f bc3c 7be2 9b3d

net.6.weight f4 [10, 32]
0.28453332 -4.19866 -1.8314725 0.5352775 0.30967322 -1.4293903 0.35500363 -2.8959658
0.48111397 0.43252155 -0.43087474 0.27696308 0.38306105 0.15833168 0.19974631 0.34763736
0.31635696 -1.003146 -5.013243 -0.96339875 -4.63071 -3.8847709 -2.7828064 0.3732265
0.35553885 -0.008456888 -0.7411584 -0.048304603 0.35326573 -0.09369888 -1.9866676 0.34797874
0.2203191 0.42210048 -0.6342618 0.28072345 -1.2318603 0.25174665 -3.260516 0.38319066
-1.1188747 0.2915696 -3.5404716 -0.09290117 0.39105502 -0.0016219779 0.42567876 -0.5402395
-1.9051865 1.0251564 0.40372545 -2.0668504 0.4753761 0.43703893 -5.5944667 -1.3258123
0.3814047 -6.618084 0.60957134 -5.4505777 -1.3911694 -2.1463263 -1.3975004 -2.0408523
0.1474717 0.31508082 -2.3552427 0.27109233 -0.12715343 0.38032204 0.04322386 0.17028928
0.15008782 -0.58406305 -4.490094 0.096255526 0.014811231 0.1277374 -3.2153106 -3.3227406
0.34242174 -2.1913662 0.28027213 -3.436358 0.32719508 0.4197574 0.44695884 -5.2831535
0.15346241 0.26882806 0.50482696 0.40833277 -4.0711308 0.35846105 -1.9422264 -3.2940228
0.17524134 -3.7499218 0.5395264 0.47154304 0.3088168 -3.0984766 0.3511308 -3.5777853
0.4988431 -1.5714736 0.47328424 0.25294805 -4.109488 0.10921391 -3.5481238 -3.320549
0.15939845 -2.3014824 -4.92 0.5269089 -3.0826497 -2.9498758 0.2953663 0.50406927
-3.1787658 0.17141911 -4.691919 0.34187165 0.5252044 0.2798973 1.0003352 0.36771563
0.3122952 0.14417614 -0.009892185 0.55816555 0.3191535 -0.85939294 0.35601112 -1.7142276
0.50020033 0.46240208 0.40394646 0.28717223 0.5305832 0.1779255 0.30905473 0.19038466
0.24372113 -1.0296696 0.020271681 -0.94871634 0.18723619 -2.8982897 -3.406389 -1.5599008
0.41193983 -3.1506677 0.48202056 -2.7990565 -0.40608686 -4.4991508 -2.1006505 0.21714392
-1.8490173 -5.2675934 -2.0163682 -1.4878751 -0.008549684 0.5630114 -4.2487626 -6.9691334
0.10526704 0.39594477 0.85202384 0.20070483 0.09250371 0.20700963 0.22817735 0.4118892
0.5031948 -3.0682423 0.04883948 0.45862082 -6.4340057 0.37543035 0.4528296 0.10265997
0.4043975 0.30554724 -1.2606441 0.41387233 -2.7140338 0.37755707 -3.847754 -3.2714713
-2.7002077 -0.15015414 0.65208024 -2.5780494 -0.17888187 -2.6116483 0.19040969 -1.0507872
-2.372914 0.48883456 0.7197254 -2.40421 0.6114899 -1.9436388 0.4103684 0.45312744
-0.06025227 -1.9721735 -1.7858732 0.6143028 0.090802334 -2.6334171 -0.44038144 0.5201461
0.3805264 0.24681391 -1.2527133 -1.7274495 0.5866627 0.25940356 -0.7204312 0.49704203
0.24829726 0.37157094 1.1852152 0.4560043 0.18125638 0.4303385 0.31085882 0.21740189
0.3776739 -4.904822 -0.817862 0.20450136 -3.0842793 0.12476831 -3.5438857 -4.147328
-3.5061376 -0.27817744 0.25835952 0.18839055 0.36750358 -1.284707 -0.24297066 0.18272863
-4.12988 -0.91221124 0.5185326 -0.7208853 0.41704506 -3.0084577 1.7782454 0.30112094
00000000: 5aae 913e 6c5b 86c0 b16d eabf f207 093f
00000010: 7d8d 9e3e 43f6 b6bf 09c3 b53e 8157 39c0
00000020: 9254 f63e 7773 dd3e 9d9b dcbe 1bce 8d3e
00000030: 9420 c43e b321 223e 4c8a 4c3e 86fd b13e
00000040: 8af9 a13e 1767 80bf 7d6c a0c0 4da1 76bf
00000050: c72e 94c0 16a0 78c0 8019 32c0 8b17 bf3e
00000060: 3009 b63e c28e 0abc 8fbc 3dbf 0cdb 45bd
00000070: 3fdf b43e 33e5 bfbd 204b febf 452a b23e
00000080: 559b 613e 8e1d d83e fb5e 22bf fcba 8f3e
00000090: 99ad 9dbf f0e4 803e 4bac 50c0 9131 c43e
000000a0: 4937 8fbf 9c48 953e 1697 62c0 f842 bebd
000000b0: 5d38 c83e 8c98 d4ba 91f2 d93e 234d 0abf
000000c0: 27dd f3bf 5338 833f 1ab5 ce3e 4747 04c0
000000d0: 7f64 f33e 91c3 df3e df05 b3c0 38b4 a9bf
000000e0: 7a47 c33e 58c7 d3c0 de0c 1c3f 226b aec0
000000f0: d711 b2bf 695d 09c0 4be1 b2bf 539d 02c0
00000100: d202 173e 4652 a13e 4cbc 16c0 9dcc 8a3e
00000110: 8234 02be 92b9 c23e 810b 313d 5060 2e3e
00000120: 9fb0 193e 2885 15bf daae 8fc0 9e21 c53d
00000130: ceaa 723c 98cd 023e a6c7 4dc0 c8a7 54c0
00000140: e751 af3e 583f 0cc0 d47f 8f3e 4aed 5bc0
00000150: 1d86 a73e 71ea d63e cad7 e43e 980f a9c0
00000160: 4025 1d3e d5a3 893e 573c 013f fe10 d13e
00000170: b446 82c0 3588 b73e e09a f8bf 45d1 52c0
00000180: 7772 333e b8fe 6fc0 671e 0a3f 176e f13e
00000190: 3c1d 9e3e 714d 46c0 6bc7 b33e 6ffa 64c0
000001a0: 5d68 ff3e 0c26 c9bf 5052 f23e 6882 813e
000001b0: ed80 83c0 8bab df3d 7614 63c0 e083 54c0
000001c0: 5939 233e 7d4b 13c0 a470 9dc0 80e3 063f
000001d0: 224a 45c0 c4ca 3cc0 403a 973e af0a 013f
000001e0: e670 4bc0 7e88 2f3e 3324 96c0 cd09 af3e
000001f0: cc73 063f b34e 8f3e fc0a 803f 3945 bc3e
00000200: 28e5 9f3e e9a2 133e d512 22bc f0e3 0e3f
00000210: 1668 a33e 2d01 5cbf 1747 b63e cf6b dbbf
00000220: 210d 003f f7bf ec3e 12d2 ce3e 3d08 933e
00000230: 4dd4 073f 1a32 363e 6c3c 9e3e 32f4 423e
00000240: 0892 793e 37cc 83bf cc10 a63c 13df 72bf
00000250: d8ba 3f3e 947d 39c0 4702 5ac0 d4aa c7bf
00000260: c7e9 d23e 8aa4 49c0 66cb f63e be23 33c0
00000270: 9eea cfbe 0bf9 8fc0 0f71 06c0 fa5a 5e3e
00000280: 99ac ecbf 2090 a8c0 2d0c 01c0 b172 bebf
00000290: f913 0cbc 8421 103f ddf5 87c0 2403 dfc0
000002a0: 3f96 d73d 46b9 ca3e 3c1e 5a3f 9185 4d3e
000002b0: 9672 bd3d 55fa 533e 53a7 693e 24e3 d23e
000002c0: 60d1 003f 155e 44c0 e80b 483d 59d0 ea3e
000002d0: 60e3 cdc0 6838 c03e 48d9 e73e 643f d23d
000002e0: 300d cf3e b070 9c3e c95c a1bf 13e7 d33e
000002f0: bbb2 2dc0 294f c13e 9a41 76c0 c95f 51c0
00000300: 34d0 2cc0 02c2 19be bbee 263f c3fe 24c0
00000310: cf2c 37be 3f25 27c0 c2fa 423e 3280 86bf
00000320: d3dd 17c0 8648 fa3e ec3f 383f 94de 19c0
00000330: 9a8a 1c3f 28c9 f8bf cf1b d23e 5200 e83e
00000340: 16cb 76bd 2e70 fcbf 7e97 e4bf f342 1d3f
00000350: 93f6 b93d e889 28c0 ad79 e1be 4b28 053f
00000360: 5bd4 c23e c9bc 7c3e e958 a0bf 111d ddbf
00000370: 872f 163f 8bd0 843e 2e6e 38bf 4b7c fe3e
00000380: a341 7e3e 8c3e be3e 22b5 973f 6579 e93e
00000390: 469b 393e 5455 dc3e e328 9f3e 9a9e 5e3e
000003a0: 795e c13e 4df4 9cc0 675f 51bf ce68 513e
000003b0: d564 45c0 8786 ff3d 06cf 62c0 e9b6 84c0
000003c0: 8f64 60c0 466d 8ebe b347 843e 74e9 403e
000003d0: 6e29 bc3e 4771 a4bf 4dcd 78be 371d 3b3e
000003e0: fa27 84c0 ad86 69bf 8dbe 043f f08b 38bf
000003f0: ee86 d53e 928a 40c0 8c9d e33f 862c 9a3e

net.6.bias f4 [10]
0.24585305 -0.27269167 0.5374814 -0.04220183 -0.18295704 0.7151908 0.4955519 0.28085127
0.7898776 -4.353066
00000000: e7c0 7b3e 3e9e 8bbe 6298 093f d3db 2cbd
00000010: 1759 3bbe bf16 373f fbb8 fd3e bdcb 8f3e
00000020: 6b35 4a3f 514c 8bc0
